mi-lora/mi-lora/output/checkpoint-62/adapter_model.safetensors (safetensors, 592848 bytes, 24 tensors)

base_model.model.transformer.h.0.attn.c_attn.lora_A.weight f4 [4, 768]
-0.029126722 0.0050414107 0.030430302 -0.029955782 -0.032462344 0.032600235 -0.032429185 -0.0116955405
0.00029538528 -0.019833293 0.00037353853 0.007665839 0.014912209 -0.015603567 0.00095690764 0.028258683
0.03585541 -0.028978877 0.020894421 0.026372993 0.030769264 0.008269484 -0.036742978 0.030124228
-0.00831422 0.011772312 -0.023223873 0.0048162416 -0.016301064 0.011765329 -0.00785561 -0.024499193
0.016827783 0.02842963 -0.0136598805 0.030947654 0.029210126 0.025935804 -0.023347504 0.02321896
0.027894413 -0.0155467875 0.003384726 0.02999951 -0.0053746016 0.0030235252 -0.008056352 0.0359054
0.0131186 -0.008503927 -0.020375792 -0.012788323 -0.03609743 -0.0008433473 0.015512512 -0.009252547
0.023029624 -0.027188305 0.008206512 0.022221033 0.0015469262 -0.011747066 -0.029956697 0.02409343
-0.0069376864 0.0029816532 -0.024624169 0.01691833 0.011645587 -7.9091085e-05 0.023417018 0.0072167655
-0.021153007 0.01686333 0.028937181 0.006332701 -0.0048986226 -0.030940656 0.0137795 0.02199823
0.0046237106 -0.011019773 0.016260568 -0.0030060872 -0.019856345 -0.024421375 0.030689405 -0.037274335
0.018618247 -0.024708118 -0.0076694316 -0.029921051 0.011166354 0.0033201212 0.03465122 -0.031473555
0.025624359 -0.026292002 0.0050538904 -8.9237496e-05 -0.0019053064 -0.008896562 0.010254477 0.03705668
0.009415374 0.008469102 -0.013087117 -0.019976703 -0.034879394 0.0031537928 -0.00020232548 -0.008020519
-0.013124292 0.0042752377 0.01875309 0.011258232 -0.028572233 -0.028461978 -0.029117623 0.0239589
0.0067127175 -0.0024449644 -0.023679394 -0.015735282 -0.017078556 -0.014716918 -0.011263571 -0.015013716
-0.023302179 -0.008274904 -0.008943395 -0.0031053384 0.029421106 -0.026160698 0.012540873 -0.019070005
0.036674302 -0.004893444 0.008632732 -0.028271396 -0.026839934 0.027078109 -0.015390794 0.005489404
0.007236267 -0.0011692017 0.028271928 -0.030975934 -0.014650932 0.005909852 -0.025587924 0.034040835
-0.021115027 0.008432817 0.032824542 -0.031452287 0.018423907 0.011737464 0.017152328 -0.016030038
0.027525157 -0.00064232555 -0.02775603 -0.030978112 0.021785047 -0.032885656 0.0039012155 0.03432055
-0.017037157 -0.036930542 0.020099979 -0.0047765607 -0.019932859 0.030381907 -0.03084507 -0.029265383
-0.01208994 -0.02001856 -0.013901225 0.026768481 0.028183142 -0.01566785 -0.003735892 -0.03558564
-0.004388641 -0.021908326 -0.018007783 -0.005151509 -0.003955314 0.03632745 0.028312152 -0.0063807387
0.011576735 0.010531646 0.036064725 0.021793295 -0.0038352127 0.015090424 0.028868388 -0.028340327
-0.034349486 0.030246476 0.03547896 0.029247789 0.032059073 -0.02681862 -0.010578835 -0.0066930475
-0.0041440134 0.02788896 0.02494364 0.030690687 0.0054150354 0.015676897 0.011551212 -0.030834962
-0.017492026 -0.019844586 -0.010021102 0.031286173 -0.0027656415 -0.021015674 0.025506448 0.019585922
0.011293237 -0.0027879959 0.010921756 -0.033936016 0.021967968 0.02551192 0.027971093 -0.023677377
0.028062824 0.017397648 0.026797086 0.0064883097 -0.026981197 -0.031508185 -0.026979856 0.020563534
-0.019412411 0.0345107 -0.020307258 -0.018696131 -0.030619528 0.004155454 0.0058716657 0.020696893
-0.010499884 -0.009934087 0.0052824495 -0.03407472 -0.016466662 0.022439167 -0.01925483 0.03389735
00000000: 2a9b eebc 6b32 a53b f848 f93c d465 f5bc
00000010: 3cf7 04bd d387 053d 77d4 04bd a79e 3fbc
00000020: f1dd 9a39 6e79 a2bc 7ed7 c339 b831 fb3b
00000030: 5652 743c 1aa6 7fbc fcd8 7a3a c17e e73c
00000040: 1fdd 123d 1c65 edbc c72a ab3c 2d0c d83c
00000050: d30f fc3c bb7c 073c ce7f 16bd 16c7 f63c
00000060: 5e38 08bc a8e0 403c fe3f bebc 90d1 9d3b
00000070: cf89 85bc 5ec3 403c d1b4 00bc 88b2 c8bc
00000080: 6bda 893c 41e5 e83c b1cd 5fbc ef85 fd3c
00000090: 134a ef3c 5377 d43c 4443 bfbc b035 be3c
000000a0: d382 e43c f4b7 7ebc 47d2 5d3b 88c1 f53c
000000b0: 6d1d b0bb 5626 463b cafe 03bc 8a11 133d
000000c0: 65ef 563c 0e54 0bbc 22eb a6bc 1d86 51bc
000000d0: e6da 13bd 1414 5dba 3128 7e3c ff97 17bc
000000e0: 9fa8 bc3c 02ba debc 9b74 063c e208 b63c
000000f0: 3bc2 ca3a c476 40bc bf67 f5bc 965f c53c
00000100: 8855 e3bb d767 433b a0b8 c9bc 4f98 8a3c
00000110: 22cd 3e3c b4dd a5b8 0cd5 bf3c 9e7a ec3b
00000120: 1249 adbc f724 8a3c ab0d ed3c 8c82 cf3b
00000130: a084 a0bb 4277 fdbc 69c3 613c a235 b43c
00000140: 7f82 973b 478c 34bc e234 853c c601 45bb
00000150: c6a9 a2bc 560f c8bc 5968 fb3c f9ac 18bd
00000160: 4b85 983c ae68 cabc db4f fbbb fe1c f5bc
00000170: 15f3 363c 6496 593b 70ee 0d3d 6aea 00bd
00000180: 2dea d13c 5362 d7bc 1b9b a53b 0425 bbb8
00000190: 79bb f9ba e3c2 11bc 6502 283c bfc8 173d
000001a0: f142 1a3c fdc1 0a3c 596b 56bc 2fa6 a3bc
000001b0: b2dd 0ebd ddaf 4e3b 5527 54b9 7f68 03bc
000001c0: 4507 57bc 4b17 8c3b 15a0 993c 7374 383c
000001d0: 5110 eabc 1829 e9bc 1588 eebc 7445 c43c
000001e0: 5bf6 db3b b23b 20bb 4afb c1bc 47e7 80bc
000001f0: 54e8 8bbc 3a1f 71bc d78a 38bc 17fc 75bc
00000200: 36e4 bebc 7793 07bc 5187 12bc ef82 4bbb
00000210: 8804 f13c f64e d6bc 3c78 4d3c b338 9cbc
00000220: cb37 163d 2f59 a0bb 4d70 0d3c 6a99 e7bc
00000230: 6cdf dbbc e9d2 dd3c ab29 7cbc 75e0 b33b
00000240: 351e ed3b e63f 99ba 889a e73c 3ec1 fdbc
00000250: 760a 70bc 6fa7 c13b c49d d1bc 676e 0b3d
00000260: 6cf9 acbc cc29 0a3c 0773 063d 1dd4 00bd
00000270: bced 963c 7e4e 403c 0a83 8c3c 6d51 83bc
00000280: 707c e13c bd61 28ba 9d60 e3bc cfc5 fdbc
00000290: 8e76 b23c 1cb3 06bd 89ab 7f3b b493 0c3d
000002a0: 8291 8bbc 7b44 17bd b6a8 a43c b284 9cbb
000002b0: 3c4a a3bc 7ae3 f83c cdae fcbc f5bd efbc
000002c0: e214 46bc f7fd a3bc f7c1 63bc 9349 db3c
000002d0: 55e0 e63c dd59 80bc ded5 74bb 40c2 11bd
000002e0: 97ce 8fbb 1779 b3bc 0f85 93bc fdcd a8bb
000002f0: 949b 81bb 18cc 143d e3ee e73c 8415 d1bb
00000300: 59ac 3d3c ed8c 2c3c 9bb8 133d da87 b23c
00000310: 3158 7bbb d33d 773c 667d ec3c f929 e8bc
00000320: 0cb2 0cbd 75c7 f73c 6352 113d 0f99 ef3c
00000330: 6050 033d b9b2 dbbc da52 2dbc 5a51 dbbb
00000340: 81ca 87bb 6377 e43c 9b56 cc3c 096b fb3c
00000350: 9c70 b13b d66c 803c 4b41 3d3c 9a99 fcbc
00000360: 704b 8fbc 1d91 a2bc 8c2f 24bc ee25 003d
00000370: c43f 35bb 1029 acbc e6f2 d03c a872 a03c
00000380: 4507 393c cfb6 36bb 2af1 323c 7e00 0bbd
00000390: 2bf6 b33c 60fe d03c a223 e53c 0ff7 c1bc
000003a0: 02e4 e53c 8385 8e3c 9085 db3c e39b d43b
000003b0: ac07 ddbc ba0e 01bd dc04 ddbc db74 a83c
000003c0: c706 9fbc 175b 0d3d 685b a6bc a128 99bc
000003d0: ced5 fabc 7a2a 883b 1a67 c03b 888c a93c
000003e0: b507 2cbc 95c2 22bc 6618 ad3b ef91 0bbd
000003f0: 18e5 86bc 58d2 b73c 4ebc 9dbc f3d7 0a3d

base_model.model.transformer.h.0.attn.c_attn.lora_B.weight f4 [2304, 4]
-5.365058e-05 0.00011391406 -0.0003511268 0.0004830298 0.00050279096 -8.343078e-06 -0.00012289103 -0.0004303874
7.90222e-06 -0.00026213782 0.00060822984 -0.0003985793 0.00024209311 -0.000116191375 0.00078384526 0.00011569014
-0.00047157766 1.6144639e-05 -0.00024940347 0.00063456915 -0.00031539044 -0.0003720333 -0.00062259776 0.0006678089
-8.460403e-05 0.00010236118 -4.6167934e-05 -0.00046319715 -1.8977435e-05 0.00031523762 6.2361025e-05 4.6329755e-05
0.00068703154 -0.00053185737 0.0010061302 0.00057166955 -0.00024203006 0.00037052826 1.7473105e-05 0.00029378923
-9.205634e-05 4.200482e-05 0.00019343462 0.0006154624 0.00044977953 -6.5723652e-06 0.00028254587 0.0005491399
0.0002092062 -0.00022280464 0.00035433244 0.0005579969 0.00014691218 -7.621995e-05 0.0002409437 -0.000573754
-0.00026903456 -4.8401253e-05 0.00031634988 0.00021918259 0.00025123276 -0.000115189636 0.0006970185 0.00014512827
-0.0001355874 -0.00025057246 6.9865404e-05 -0.00024140408 -0.00042816505 0.00045143743 -0.0007051676 0.00027701774
-0.00021807848 -0.00029007345 2.5322703e-05 0.00036710172 -0.00043694995 -4.8444537e-05 0.00021357664 0.00018903195
-0.00013495494 -5.096944e-05 -0.00047783443 0.00046758392 0.00029592938 0.00016822043 -8.460358e-06 3.751629e-05
0.00010358954 -0.00019408703 0.00036837434 -0.00014588286 -0.00010414417 0.00046418107 -0.00055000157 -0.00018447862
0.0004895502 -0.00021605406 -0.00029982935 -0.0003457532 0.00069818605 -0.00042739624 0.0007198161 -0.00045577798
0.00045738296 -0.00058011047 0.0007286521 0.00052345527 0.00020222209 -0.00046150884 0.00038208452 0.00073307665
7.607466e-05 -0.0003481739 0.0003271812 0.0007942191 0.00051129836 -0.0001845532 0.00017110539 0.0004453777
3.8598257e-05 0.00014545968 -0.0004535261 0.00029293532 -2.8182963e-05 -0.00058141217 -0.000120132274 0.0008196852
0.00019690818 -0.00018208205 -0.00038770935 -0.00010964357 0.0006789046 -0.00061497407 0.000412425 -5.5388628e-05
0.0001041122 0.0003335738 0.00022250647 -0.00062956894 0.00016020234 -7.581587e-05 -0.00021849603 0.00036796246
0.00056515896 -1.1112106e-05 0.00032618808 0.00050765224 -0.00014680714 0.00034683695 -0.000122019715 -0.0009060389
-0.00016897601 0.00038309654 -0.00069970737 -0.00094365183 2.3617536e-05 -0.000102120444 0.0002000673 0.00059258
-0.00050053204 0.0003439417 0.00024095637 -0.00051858404 0.0004518666 -0.0005122842 0.000653885 6.594629e-05
1.0994281e-06 -0.00032714437 0.0005281012 -0.00048345543 0.0005562361 -0.00067530136 0.00085314654 2.2452261e-05
0.0002331779 0.00036249805 0.00023081654 -3.6008641e-06 -0.00054720603 0.0001332497 -0.00043761145 0.00034380177
-0.0002139371 -0.0004445799 -3.9328286e-05 -8.623171e-05 -0.0006288754 -5.9414815e-05 -0.00047910624 -0.00043210172
0.00037462584 0.00023112919 -0.00013731404 0.00029928563 -7.66146e-05 -0.00033478747 0.00028585445 -0.00029947516
0.0004387014 5.3973214e-05 -0.00014730335 -0.00019083051 -0.0005401562 8.653789e-05 -0.0006200397 0.0002055488
0.00043973036 -0.00040311884 0.00052234466 -0.00015739977 0.0007115157 -0.00020602446 0.00029111703 0.00015462315
0.000537652 -0.00060701487 0.0007877 0.00089043536 -0.0004857079 0.00010358305 -0.000104243416 -0.0006610261
-1.2029495e-06 5.92223e-05 0.00020004806 0.00028068663 0.00048005488 -0.0005693545 0.0007107576 0.00033392117
0.00060782937 -0.0003158515 0.0008131294 -2.8528331e-05 0.0007857517 -0.00060807436 0.0005534738 0.000115805866
-0.000216959 0.0004786065 -0.00053643476 0.00030905774 -0.00082307303 0.0004224855 -0.00051406596 -0.00018927196
-0.0004860232 5.356115e-05 -0.00019047358 -0.00010897617 -0.00023488872 0.00017951116 -0.00033160837 -0.00039254967
00000000: df06 61b8 25e5 ee38 7117 b8b9 2a3f fd39
00000010: bbcd 033a 3ff9 0bb7 4fdc 00b9 9ea5 e1b9
00000020: c793 0437 8b6f 89b9 9d71 1f3a 68f8 d0b9
00000030: 60da 7d39 c5ab f3b8 f77a 4d3a ac9e f238
00000040: 153e f7b9 596e 8737 5ec2 82b9 3759 263a
00000050: fd5a a5b9 770d c3b9 d435 23ba e60f 2f3a
00000060: 716d b1b8 bdaa d638 71a4 41b8 45d9 f2b9
00000070: bb31 9fb7 7a46 a539 d2c7 8238 3252 4238
00000080: e819 343a 586c 0bba 21e0 833a 18dc 153a
00000090: 73c9 7db9 7643 c239 3593 9237 b907 9a39
000000a0: 5f0e c1b8 552e 3038 b6d4 4a39 fc56 213a
000000b0: 63d0 eb39 3088 dcb6 aa22 9439 28f4 0f3a
000000c0: 5d5e 5b39 aaa0 69b9 b2c5 b939 8a46 123a
000000d0: 700c 1a39 46d8 9fb8 d5a5 7c39 fb67 16ba
000000e0: 350d 8db9 7302 4bb8 c3db a539 61d4 6539
000000f0: e4b7 8339 f791 f1b8 1fb8 363a 932d 1839
00000100: 772c 0eb9 445f 83b9 b484 9238 6a21 7db9
00000110: 577b e0b9 e8ae ec39 ffda 38ba b13c 9139
00000120: ffab 64b9 0015 98b9 176c d437 8f77 c039
00000130: 6e16 e5b9 ed30 4bb8 8bf3 5f39 e136 4639
00000140: b182 0db9 05c8 55b8 da85 fab9 0d26 f539
00000150: f826 9b39 5464 3039 f6f0 0db7 cf5a 1d38
00000160: 363e d938 d783 4bb9 5e22 c139 22f8 18b9
00000170: fa67 dab8 545d f339 fb2d 10ba 9a70 41b9
00000180: 2855 003a 928c 62b9 6a32 9db9 3546 b5b9
00000190: 7906 373a 2714 e0b9 0ab2 3c3a 7cf5 eeb9
000001a0: e7cc ef39 8e12 18ba 0403 3f3a 7d38 093a
000001b0: 940b 5439 abf6 f1b9 8452 c839 f12b 403a
000001c0: 468a 9f38 1c8b b6b9 8489 ab39 2433 503a
000001d0: a708 063a 9f84 41b9 c16a 3339 9581 e939
000001e0: 90e4 2138 8986 1839 3ec7 edb9 1d95 9939
000001f0: 746a ecb7 e969 18ba 86ef fbb8 25e0 563a
00000200: 2379 4e39 47ed 3eb9 7845 cbb9 72f0 e5b8
00000210: 84f8 313a 3636 21ba bf3a d839 1651 68b8
00000220: d056 da38 84e3 ae39 a050 6939 a809 25ba
00000230: fdfb 2739 56ff 9eb8 151c 65b9 16eb c039
00000240: 2d27 143a 226e 3ab7 3904 ab39 f713 053a
00000250: 3ef0 19b9 abd7 b539 d6e4 ffb8 3e83 6dba
00000260: 272f 31b9 59da c839 916c 37ba 675f 77ba
00000270: 461e c637 7f29 d6b8 28c9 5139 5f57 1b3a
00000280: 2336 03ba 1353 b439 3ca9 7c39 96f1 07ba
00000290: 82e8 ec39 d04a 06ba 7b69 2b3a a54c 8a38
000002a0: 1090 9335 9384 abb9 4670 0a3a 4a78 fdb9
000002b0: 5fd0 113a b506 31ba b2a5 5f3a dd57 bc37
000002c0: 3781 7439 aa0d be39 5807 7239 60a6 71b6
000002d0: 6072 0fba f2b8 0b39 376f e5b9 4b40 b439
000002e0: 4e54 60b9 8116 e9b9 6df4 24b8 4cd7 b4b8
000002f0: 1ddb 24ba 2c34 79b8 8d30 fbb9 b68b e2b9
00000300: 6e69 c439 455b 7239 f5fb 0fb9 70e9 9c39
00000310: 26ac a0b8 6a86 afb9 bcde 9539 e002 9db9
00000320: 8101 e639 4c61 6238 7175 1ab9 ad19 48b9
00000330: 4599 0dba ad7b b538 298a 22ba 9688 5739
00000340: 9c8b e639 b259 d3b9 f5ed 083a ae0b 25b9
00000350: 0385 3a3a 4508 58b9 11a1 9839 5622 2239
00000360: 37f1 0c3a 1420 1fba a77d 4e3a 1b6c 693a
00000370: 9ca6 feb9 ba3a d938 429d dab8 b648 2dba
00000380: 0875 a1b5 7665 7838 fec3 5139 1f29 9339
00000390: e0af fb39 bc40 15ba 2352 3a3a 2412 af39
000003a0: bd56 1f3a df98 a5b9 3128 553a 2050 efb7
000003b0: e7fa 4d3a 2e67 1fba ff16 113a cddc f238
000003c0: 7d7f 63b9 7aed fa39 879f 0cba 0709 a239
000003d0: 7fc3 57ba 0b81 dd39 62c2 06ba 4e77 46b9
000003e0: eed0 feb9 d9a6 6038 ddb9 47b9 238a e4b8
000003f0: 764c 76b9 293b 3c39 b9db adb9 20cf cdb9

base_model.model.transformer.h.1.attn.c_attn.lora_A.weight f4 [4, 768]
-0.008188937 0.021756476 -0.012134031 0.010159917 -0.015466815 -0.024113532 0.03315985 -0.003530775
-0.0033387209 -0.008271169 -0.027059404 -0.012408499 0.008361865 -0.0031138451 -0.014002253 -0.005472099
0.026036263 0.015638554 0.035595912 -0.019543566 -0.007994522 -0.023669945 0.011820985 0.032690283
-0.019917853 -0.019965902 0.0127992565 -0.019785091 0.033926558 0.034744143 0.025771242 0.019335963
-0.003917617 0.018338611 -0.01243004 -0.012944749 -0.005913225 -0.017634492 -0.02008178 0.00997148
-0.00777726 0.0028696032 -0.022660227 -0.0067082513 -0.017476525 0.0098708 -0.0025818397 -0.004781153
-0.01297192 0.0016898294 0.031458568 -0.006830112 0.023190971 0.030715767 -0.008880105 0.016239313
-0.031632017 0.029299304 0.03455346 -0.021937342 0.023406314 -0.00768637 0.015794555 0.005931587
-0.01555187 -0.015436654 -0.032686476 -0.009401306 -0.010982539 0.030502863 0.025367813 -0.025374115
-0.003409557 -0.022754991 -0.032779183 -0.022785416 -0.009366129 -0.009749119 0.017808398 0.009655204
0.027003406 -0.03437441 0.011617103 -0.019876713 -0.0118229315 0.03288413 0.019159187 0.0048105195
-0.020557115 0.0030758486 -0.015021576 0.0049732365 -0.019867582 0.013234647 0.01260836 -0.031118667
0.025252106 -0.029144848 0.002055278 0.014586376 0.0118623385 -0.0006936059 -0.03449208 0.036046837
-0.004871964 0.0039507705 -0.0021059318 -0.03251166 -0.030473886 -0.014364107 0.03484266 -0.022639416
0.014475558 0.015422633 -0.02627176 -0.014305991 0.029209122 -0.018738272 0.001854822 0.033118814
0.03203266 0.025991479 -0.010651655 0.020617433 -0.025176642 0.021338025 0.01005146 -0.0065350225
0.024607249 -0.015464529 0.002850103 0.010901238 0.008562113 -0.02084797 0.018673446 0.024499014
-0.036895085 -0.030639814 -0.03421493 0.017656608 -0.008620979 -0.014824166 -0.011377876 0.027256964
-0.008815654 -0.026741415 0.029052699 0.013988353 0.025042554 0.016212631 -0.036708873 0.0007441066
0.023153476 0.030013336 0.00076730247 -0.026634658 0.030673755 0.0280715 0.010673697 0.0013826746
0.0049329437 0.0041245758 -0.013305982 0.03646682 -0.030831167 0.023210792 0.03153547 0.03083915
0.010720784 -0.011718321 -0.030941907 -0.032399897 0.0041448083 -0.02126766 0.021842852 -0.0013610421
-0.02262415 -0.010762016 0.006467953 -0.0073418976 -0.03434776 -0.021865131 0.013860352 -0.011468571
0.006342113 0.022687541 0.035836693 -0.000875994 0.030828074 -0.001791365 -0.003077144 -0.017543912
-0.0122079775 0.029989637 -0.015390969 -0.020426773 -0.028140858 0.022847213 0.020236576 0.007675381
0.0166197 -0.032700885 -0.036697768 0.0034914385 0.007750364 -0.014589922 -0.024405418 0.00021657745
-0.013727513 -0.023218429 -0.00052713277 0.030128855 0.005143989 0.034565847 0.03408311 0.022250663
0.031513773 -0.03580537 -0.011263075 -0.0011642231 -0.00056639686 0.0010240568 -0.036246125 -0.009503347
-0.0035933098 -0.028129656 -0.002787899 0.016711969 0.012177123 -0.023127293 0.00155685 0.012195142
0.018751876 0.003971606 -0.03044191 -0.034710977 0.034398556 0.016593635 -0.028974896 -0.0122614
0.019913947 -0.03689514 -0.016659439 0.0056976625 0.035090875 -0.009821786 -0.019057395 0.033349372
-0.0035802906 -0.027761407 0.008954886 -0.0072569516 -0.015826741 -0.013746813 -0.03206535 -0.0066140313
00000000: e42a 06bc a33a b23c d1cd 46bc c875 263c
00000010: 8668 7dbc be89 c5bc 9fd2 073d 9364 67bb
00000020: 71ce 5abb cc83 07bc afab ddbc 044d 4bbc
00000030: 3400 093c a711 4cbb b569 65bc 4b4f b3bb
00000040: 004a d53c 6d1c 803c 05cd 113d d419 a0bc
00000050: 75fb 02bc 79e7 c1bc ceac 413c 3fe6 053d
00000060: c42a a3bc 888f a3bc f9b3 513c 5814 a2bc
00000070: 93f6 0a3d e04f 0e3d 361e d33c 7466 9e3c
00000080: 5a5f 80bb db3a 963c 5ea7 4bbc 3616 54bc
00000090: bac3 c1bb 3676 90bc 8c82 a4bc 6b5f 233c
000000a0: 63d8 febb f40f 3c3b f1a1 b9bc e4d0 dbbb
000000b0: ee2a 8fbc 23b9 213c 1534 29bb 38ab 9cbb
000000c0: 2d88 54bc 447d dd3a b3da 003d 22cf dfbb
000000d0: fefa bd3c a29f fb3c dc7d 11bc 4f08 853c
000000e0: 9390 01bd 1805 f03c ee87 0d3d f1b5 b3bc
000000f0: 99be bf3c f2dd fbbb 9563 813c c25d c23b
00000100: 45cd 7ebc 05ea 7cbc 41e2 05bd ef07 1abc
00000110: 1bf0 33bc 24e1 f93c 29d0 cf3c 60dd cfbc
00000120: e072 5fbb ad68 babc 7743 06bd 7ba8 babc
00000130: 6474 19bc c5ba 1fbc ebe2 913c dc30 1e3c
00000140: 3f36 dd3c 2ecc 0cbd a955 3e3c 7dd4 a2bc
00000150: f8b4 41bc 82b1 063d baf3 9c3c 90a1 9d3b
00000160: 6567 a8bc 2d94 493b 0e1d 76bc 88f6 a23b
00000170: 57c1 a2bc 22d6 583c 4b93 4e3c 93ec febc
00000180: 81dd ce3c 2dc1 eebc d8b1 063b b2fb 6e3c
00000190: 415a 423c 1bd3 35ba 9147 0dbd d9a5 133d
000001a0: ffa4 9fbb 7775 813b ac03 0abb f22a 05bd
000001b0: 5fa4 f9bc 6e57 6bbc 2db7 0e3d 4c76 b9bc
000001c0: e42a 6d3c 36af 7c3c e037 d7bc ad63 6abc
000001d0: f847 ef3c 0181 99bc 801d f33a 98a7 073d
000001e0: ae34 033d 15ec d43c 4784 2ebc e4e5 a83c
000001f0: 3f3f cebc 15cd ae3c e1ae 243c be23 d6bb
00000200: 2495 c93c f05e 7dbc cbc8 3a3b 1b9b 323c
00000210: 1b48 0c3c 5dc9 aabc 0ef9 983c 28b2 c83c
00000220: 4d1f 17bd 5900 fbbc f424 0cbd 97a4 903c
00000230: 023f 0dbc 0fe1 72bc 456a 3abc ff49 df3c
00000240: 886f 10bc d010 dbbc edff ed3c 682f 653c
00000250: 0b26 cd3c 5ad0 843c 0b5c 16bd 2610 433a
00000260: 5cac bd3c 87de f53c cc24 493a ed30 dabc
00000270: 8747 fb3c 34f6 e53c bbe0 2e3c dc3a b53a
00000280: 88a4 a13b 7327 873b 5501 5abc 3b5e 153d
00000290: a591 fcbc 8f24 be3c 562b 013d 63a2 fc3c
000002a0: 3aa6 2f3c 33fe 3fbc e279 fdbc c1b5 04bd
000002b0: 2cd1 873b 8439 aebc c8ef b23c ff64 b2ba
000002c0: 4856 b9bc 2b53 30bc 1ff1 d33b 4d94 f0bb
000002d0: 3db0 0cbd 811e b3bc 8816 633c ace6 3bbc
000002e0: 80d1 cf3b 39db b93c 7fc9 123d f6a2 65ba
000002f0: 288b fc3c 3ccc eaba e9a9 49bb 40b8 8fbc
00000300: f803 48bc d4ac f53c 672a 7cbc 0c56 a7bc
00000310: a887 e6bc 142a bb3c 2dc7 a53c c381 fb3b
00000320: 0926 883c 5df1 05bd 6650 16bd 9ed0 643b
00000330: c4f6 fd3b 910a 6fbc dfed c7bc 1119 6339
00000340: 5de9 60bc 9334 bebc 482f 0aba cad0 f63c
00000350: e88e a83b eb94 0d3d bb9a 0b3d 0647 b63c
00000360: 9614 013d a7a8 12bd c388 38bc d898 98ba
00000370: 407a 14ba a539 863a d176 14bd edb3 1bbc
00000380: bc7d 6bbb 2a70 e6bc 2fb5 36bb 8ae7 883c
00000390: 8e82 473c 7375 bdbc 380f cc3a 22ce 473c
000003a0: 899d 993c 3f24 823b 5061 f9bc 192d 0ebd
000003b0: 80e5 0c3d 60ef 873c c35c edbc 0ae4 48bc
000003c0: 9322 a33c 5c1f 17bd 6079 88bc 75b3 ba3b
000003d0: 73bb 0f3d 8eeb 20bc 411e 9cbc 5a99 083d
000003e0: 4fa3 6abb e46b e3bc 84b7 123c b9cb edbb
000003f0: 15a7 81bc 503a 61bc f556 03bd 84ba d8bb

base_model.model.transformer.h.1.attn.c_attn.lora_B.weight f4 [2304, 4]
4.4414235e-05 -2.8085451e-05 0.00041303612 -0.00017662045 0.00010083724 0.00013964048 0.0004501567 0.00030147747
-0.00017049123 -0.00014919852 -4.7808015e-05 -0.0002141786 -4.8105223e-05 -0.00031762832 1.3953106e-05 0.00014492204
-1.436482e-05 0.0002956606 -0.00027934095 -0.0003602308 0.00022755458 5.891143e-06 0.000117280135 8.204626e-05
0.00013350185 -0.00019627658 6.282146e-05 0.00024715473 -8.042733e-05 -7.791226e-06 0.00012157891 0.00014130597
0.00032849115 0.00014644933 0.0006352408 0.0004546324 5.6442626e-05 0.00021542772 2.6515188e-05 -0.00028929856
0.0005819253 0.00061505404 0.00046904027 5.492115e-05 -0.00016120392 5.8955928e-05 1.3330419e-05 -0.00014665579
-7.0116206e-05 -0.00034273614 -0.00032372453 0.00010682646 0.0007628377 0.000401185 0.00040030747 0.00030635635
-6.150703e-05 -0.00018343178 6.168628e-05 0.0001689547 -0.00041734544 -4.6552766e-05 -0.0005616545 3.1657746e-05
-7.558025e-05 -0.00018140212 0.00026523496 -0.000115201656 -0.0005636779 -0.00010450492 -0.0002193786 0.00038135395
-0.00014665707 -0.0004504615 -0.0002031684 0.00035438983 0.0006007646 0.00047206902 0.00028509137 -0.00015908592
0.00014499929 -1.1995147e-05 -9.044096e-05 0.0006124445 0.000265878 -0.00024376344 2.2099737e-05 0.0004148817
8.8832596e-05 0.00016358377 -6.524081e-05 0.0003108444 0.0005257224 0.0005269799 9.7235075e-05 0.00024039205
-0.0007747539 -0.00032935647 -0.00030409064 -0.00068544835 -0.0003121339 9.3471564e-05 -6.698901e-05 0.00021641387
-1.5189627e-05 -1.1488961e-05 -4.2153944e-05 -0.00032671404 -9.044499e-05 -8.543086e-05 -0.00023385353 0.00013702431
7.851733e-05 -0.00026657994 6.222182e-05 0.00045056554 -0.0003482751 -0.00033273944 -0.00024273043 -5.81027e-05
0.0007758132 -0.00011867801 0.00045009324 0.0005045142 -0.0005855731 -0.0001431373 -0.0002613204 7.243523e-08
0.00047922885 -0.0004544362 -5.735587e-05 -4.396492e-05 0.00014611566 0.00025054018 0.00031946585 -0.00015159664
0.00024264689 0.0002875678 -0.00035670825 0.00022108636 -0.00025751864 -0.00037933484 -0.00018905314 -2.088211e-05
0.0001624162 0.00010404638 -3.719471e-05 0.0004328819 -9.5975396e-05 0.0003132701 -2.2439559e-05 -2.0418386e-06
-9.299669e-05 0.00011066569 0.00021753227 3.116773e-06 0.00012657237 0.00022187123 8.199165e-05 0.00016248733
-0.00021614082 -5.176912e-06 -0.00045222792 0.00016181644 0.00023428864 0.00037043414 8.6115266e-05 -0.00014689313
0.000111180525 -0.00018178285 0.00024403504 -0.00021836128 -0.00019256303 0.00061838335 -0.00030742696 -0.0004894687
0.0003192275 0.00016981771 -0.00012582557 0.00040890084 5.3249336e-05 0.00021513308 0.00015877016 0.0002013416
-1.1459404e-05 -0.00039751708 -0.00016957703 -0.00018010892 -0.00054068695 -0.00019199958 -0.00063874735 -5.616547e-05
0.00014362339 -0.00023046054 0.0003121859 0.0002175932 -0.0005443627 -0.0001350766 4.829622e-05 -0.00017788845
-0.0004096165 -5.70947e-05 -0.00012363517 -0.00020291816 5.8542733e-05 0.00020814002 0.00018858077 -4.0947692e-05
7.6222976e-05 0.00013026985 1.7784772e-05 -0.00034818775 0.00020995627 -0.00014428663 -6.002721e-05 0.00027331625
0.00044791496 8.294274e-05 4.379743e-05 0.00040056097 -0.00046991446 -2.3943363e-05 -7.4001205e-06 -0.00040710586
0.0003074122 0.00019586549 -3.988952e-06 2.5260415e-05 0.00027872252 0.00028556556 -0.0004620129 5.4305376e-05
-8.376702e-05 6.4055224e-05 -0.00022848808 7.0274305e-05 0.00011813006 0.00012281045 0.0005339108 -0.00069856975
0.00063007895 0.00017912018 0.00032431915 0.0002995787 -0.00042647135 -0.00015764544 -0.0001879044 0.0003516971
7.965784e-05 0.00023538267 -1.35384935e-05 0.00020106518 -0.00036420478 0.0001430527 -0.00021302109 -0.00025582477
00000000: 6c49 3a38 0c99 ebb7 c58c d839 3133 39b9
00000010: 9578 d338 756c 1239 0203 ec39 9f0f 9e39
00000020: e4c5 32b9 2c72 1cb9 7785 48b8 2195 60b9
00000030: 97c4 49b8 5a87 a6b9 2218 6a37 37f6 1739
00000040: 6f00 71b7 e502 9b39 8274 92b9 5cdd bcb9
00000050: b89b 6e39 88ac c536 4bf4 f538 4010 ac38
00000060: a1fc 0b39 98cf 4db9 04bf 8338 8c94 8139
00000070: 18ab a8b8 10b7 02b7 2ef8 fe38 882b 1439
00000080: 5639 ac39 3190 1939 4a86 263a ba5b ee39
00000090: cfbc 6c38 70e4 6139 ef6c de37 ffac 97b9
000000a0: 598c 183a 943b 213a 85e9 f539 235b 6638
000000b0: d908 29b9 7247 7738 b7a5 5f37 9dc7 19b9
000000c0: 5a0b 93b8 44b1 b3b9 92b9 a9b9 0508 e038
000000d0: 2cf9 473a 2456 d239 5ce0 d139 749e a039
000000e0: 56fd 80b8 9857 40b9 925d 8138 6f29 3139
000000f0: 28cf dab9 a741 43b8 ff3b 13ba 3fc8 0438
00000100: d680 9eb8 c336 3eb9 3c0f 8b39 6b98 f1b8
00000110: c9c3 13ba a729 dbb8 ff08 66b9 76f0 c739
00000120: f5c7 19b9 eb2b ecb9 9a09 55b9 66cd b939
00000130: a17c 1d3a 0880 f739 5178 9539 4dd0 26b9
00000140: f30a 1839 c43e 49b7 1fab bdb8 748c 203a
00000150: 8b65 8b39 c09a 7fb9 d362 b937 7b84 d939
00000160: a34b ba38 af87 2b39 e5d1 88b8 d4f8 a239
00000170: a2d0 093a 0625 0a3a afea cb38 c011 7c39
00000180: db18 4bba 7aad acb9 5b6e 9fb9 a9af 33ba
00000190: e7a5 a3b9 2a06 c438 737c 8cb8 28ed 6239
000001a0: f4d6 7eb7 b6c0 40b7 74ce 30b8 d14a abb9
000001b0: 49ad bdb8 5829 b3b8 9436 75b9 2fae 0f39
000001c0: aca9 a438 c1c3 8bb9 167d 8238 e239 ec39
000001d0: b198 b6b9 8873 aeb9 7485 7eb9 4db3 73b8
000001e0: f15f 4b3a c5e2 f8b8 7efa eb39 6041 043a
000001f0: 2581 19ba 2017 16b9 d501 89b9 b08d 9b33
00000200: 0241 fb39 6541 eeb9 6591 70b8 f966 38b8
00000210: a036 1939 ef5a 8339 fb7d a739 eaf5 1eb9
00000220: 076f 7e39 b2c4 9639 9204 bbb9 6bd3 6739
00000230: 9103 87b9 76e1 c6b9 913c 46b9 fd2b afb7
00000240: 444e 2a39 7a33 da38 8401 1cb8 6df4 e239
00000250: 6646 c9b8 673e a439 963c bcb7 8506 09b6
00000260: 3807 c3b8 3115 e838 6019 6439 c129 5136
00000270: 83b8 0439 1ba6 6839 eff2 ab38 5c61 2a39
00000280: dca3 62b9 56b5 adb6 0119 edb9 45ad 2939
00000290: 61ab 7539 d436 c239 c898 b438 5307 1ab9
000002a0: 9729 e938 f69c 3eb9 a8e3 7f39 e9f7 64b9
000002b0: bfea 49b9 011b 223a 262e a1b9 b04f 00ba
000002c0: fd5d a739 1811 3239 0bf0 03b9 be61 d639
000002d0: 0a58 5f38 5995 6139 8a7b 2639 391f 5339
000002e0: c441 40b7 d769 d0b9 7dd0 31b9 9fdb 3cb9
000002f0: e3bc 0dba 7f53 49b9 9c71 27ba 3793 6bb8
00000300: 9c99 1639 c8a7 71b9 e2ac a339 bb29 6439
00000310: 90b3 0eba 59a3 0db9 ac91 4a38 9187 3ab9
00000320: ccc1 d6b9 f878 6fb8 10a4 01b9 6ec6 54b9
00000330: c88b 7538 2940 5a39 c4bd 4539 40bf 2bb8
00000340: e6d9 9f38 0c99 0839 8230 9537 f88c b6b9
00000350: b527 5c39 a64b 17b9 bac5 7bb8 e34b 8f39
00000360: 21d6 ea39 8bf1 ad38 22b3 3738 6202 d239
00000370: da5e f6b9 fbd9 c8b7 8d4e f8b6 d370 d5b9
00000380: 2b2c a139 3e61 4d39 d6d8 85b6 54e6 d337
00000390: 8121 9239 f6b7 9539 523a f2b9 f4c5 6338
000003a0: 14ac afb8 6355 8638 4d96 6fb9 3b60 9338
000003b0: 98bc f738 aec6 0039 26f6 0b3a 3920 37ba
000003c0: e22b 253a 35d2 3b39 6109 aa39 c610 9d39
000003d0: 0498 dfb9 a04d 25b9 3408 45b9 fc63 b839
000003e0: fa0d a738 0ed1 7639 6323 63b7 06d5 5239
000003f0: bdf2 beb9 6b00 1639 6a5e 5fb9 3820 86b9

base_model.model.transformer.h.10.attn.c_attn.lora_A.weight f4 [4, 768]
-0.02538814 0.0045403987 -0.033174846 0.017459976 -0.033435374 -0.0152480155 0.03475248 -0.0088381935
0.015334461 0.021458229 0.0019397722 0.0017303108 0.025496464 0.03481951 -0.02214554 0.0035179316
-0.03642033 0.013503788 -0.0003725621 0.008871408 -0.010544906 0.017382981 0.0049495427 0.020258624
-0.028298939 0.0072828652 0.023283167 -0.024297623 0.010096517 -0.02723485 -0.014728559 -0.00086571765
0.00220535 -0.003024327 -0.00012000376 0.00027490623 -0.016120771 0.008903291 0.030690238 0.005403812
-0.002898869 -0.012070709 0.0067539355 0.008618763 0.020180881 -0.010807571 0.014675825 -0.029317217
0.004766813 -0.023710495 -0.017998211 0.025611317 0.009550847 -0.028288696 -0.003197099 0.02301599
-0.000268378 -0.011202912 0.026723502 0.008299451 -0.029226236 0.02986011 0.027355755 -0.013887021
-0.023508422 0.023489844 0.004787555 -0.031286415 0.029958991 -0.02755175 -0.028555458 -0.0078594545
0.00078318187 0.0307141 -0.03179018 0.009269107 -0.021810383 -0.014101733 0.023550099 -0.028993696
0.01991001 0.021190232 -0.00716959 0.02132257 -0.028834742 0.02137264 0.007756453 -0.0114325695
-0.011261076 0.019525433 0.0058590267 -0.0089557385 -0.026914323 -0.025560966 0.024679497 -0.020923572
0.01660826 -0.030349547 -0.027168611 0.021910725 0.016701752 -0.0077231037 -0.030641593 -0.019902224
0.023517434 -0.005554092 0.006815563 0.029035179 -0.0054425844 -0.01669955 0.0012609665 -0.007886489
-0.0105526745 -0.012628692 -0.031603843 0.022070246 0.006191408 -0.03276792 -0.004384829 -0.009915641
0.012691452 0.024065675 0.021118037 0.016374176 -0.010827967 -0.0042054364 0.02581264 -0.025610108
0.026317801 0.020675728 -0.020662988 0.007656698 -0.028938994 -0.013630989 -0.012253049 0.028693888
-0.035568252 0.0069077774 -0.0074422583 0.027571034 0.004367557 -0.027391845 -0.00853693 -0.011626247
-0.023080407 0.0066036973 -0.016393648 -0.013281511 -0.0038402998 -0.007875521 0.004333484 0.027744751
-0.023645103 -0.012511805 -0.026184997 0.011903188 -0.009211238 -0.031965557 0.013494322 0.022013122
0.01354282 -0.02436111 -0.015025845 -0.014655426 0.032393742 0.007905267 -0.028970353 -0.010486745
-0.018789407 -0.020583024 0.013959495 0.018323557 -0.012697073 -0.028013645 -0.0044930517 0.026165644
-0.0044927383 0.029735293 0.030403677 -0.017756283 0.029598553 0.01085373 -0.036722563 0.022167783
0.009696426 0.0032350929 -0.02018965 -0.024158033 0.027121814 0.014834831 -0.014027333 -0.013613954
-0.02045625 -0.022662641 0.031558547 0.021570537 0.0039320057 0.030369405 -0.008733493 0.009318189
0.0063705416 -0.017817454 -0.014510246 -0.012540686 0.032251943 0.018610308 0.01679785 0.034127582
-0.021621924 -0.0051932726 9.634449e-05 -0.02627845 0.0120488135 -0.0016649624 -0.02202882 0.024769556
0.01963088 0.02221976 -0.011126601 0.034213208 0.014891594 -0.02764246 0.018001718 -0.021787645
0.00035297565 -0.020396793 -0.017995581 -0.015842818 -0.03151779 0.004871588 -0.020699613 -0.021954017
-0.0068738074 0.02477533 -0.018188152 -0.003179356 0.009954049 -0.03199813 0.015359176 -0.011353222
-0.0013616935 0.033557516 0.013732455 -0.015190219 0.0068408083 -0.019765355 -0.03414642 -0.018630411
0.0028171153 -0.010488397 0.0019773412 0.0053937184 0.03655503 -0.015211103 0.021251507 0.036717843
00000000: cafa cfbc a0c7 943b 59e2 07bd 3908 8f3c
00000010: 88f3 08bd d0d2 79bc 9e58 0e3d 12ce 10bc
00000020: 643d 7b3c 2bc9 af3c f43f fe3a 99cb e23a
00000030: f6dd d03c e79e 0e3d 906a b5bc 198d 663b
00000040: 7c2d 15bd fe3e 5d3c 7054 c3b9 6259 113c
00000050: 8bc4 2cbc c166 8e3c c62f a23b 6af5 a53c
00000060: 2dd3 e7bc 1aa5 ee3b 57bc be3c cf0b c7bc
00000070: dd6b 253c 9f1b dfbc 0e50 71bc 54f1 62ba
00000080: a287 103b ca33 46bb 87aa fbb8 4a21 9039
00000090: b50f 84bc 1cdf 113c 186a fb3c 7612 b13b
000000a0: f4fa 3dbb 39c4 45bc 1e50 dd3b b635 0d3c
000000b0: 6052 a53c 3d12 31bc df72 703c a92a f0bc
000000c0: ed32 9c3b 833c c2bc fc70 93bc d3ce d13c
000000d0: 287b 1c3c b2bd e7bc 6c86 51bb 088c bc3c
000000e0: 16b5 8cb9 6b8c 37bc 3feb da3c 6cfa 073c
000000f0: dc6b efbc 309d f43c 2d19 e03c 6386 63bc
00000100: bc94 c0bc c66d c03c ece0 9c3b 2f26 00bd
00000110: 8f6c f53c 35b4 e1bc 23ed e9bc f1c4 00bc
00000120: 724e 4d3a 239c fb3c 6b36 02bd 74dd 173c
00000130: b0ab b2bc f50a 67bc 23ec c03c 3084 edbc
00000140: 511a a33c 2397 ad3c e1ee eabb acac ae3c
00000150: d636 ecbc ad15 af3c d829 fe3b ac4f 3bbc
00000160: 6080 38bc cdf3 9f3c 14fd bf3b 17bb 12bc
00000170: 6d7b dcbc 3b65 d1bc a82c ca3c e967 abbc
00000180: 0c0e 883c 9d9f f8bc b590 debc 1f7e b33c
00000190: 1dd2 883c 1712 fdbb 1404 fbbc fd09 a3bc
000001a0: a2a7 c03c 1aff b5bb 1655 df3b 2fdb ed3c
000001b0: b557 b2bb 7fcd 88bc 0447 a53a 5536 01bc
000001c0: 20e5 2cbc 93e8 4ebc 0873 01bd a9cc b43c
000001d0: 4be1 ca3b a837 06bd 9dae 8fbb 3675 22bc
000001e0: cfef 4f3c 6125 c53c bcff ac3c 2323 863c
000001f0: c967 31bc c2cd 89bb 0875 d33c 4acc d1bc
00000200: 6e98 d73c 2560 a93c 6d45 a9bc 0ae5 fa3b
00000210: 7811 edbc 8354 5fbc 03c1 48bc 720f eb3c
00000220: 04b0 11bd a35a e23b 30de f3bb a6dc e13c
00000230: b91d 8f3b dd64 e0bc 7bde 0bbc 047c 3ebc
00000240: 1f13 bdbc d463 d83b f94b 86bc b29a 59bc
00000250: 8aad 7bbb 5408 01bc e6ff 8d3b f648 e33c
00000260: 60b3 c1bc 50fe 4cbc eb81 d6bc 9705 433c
00000270: bbea 16bc 51ee 02bd 4a17 5d3c dd54 b43c
00000280: b4e2 5d3c f390 c7bc f62e 76bc 501d 70bc
00000290: 4daf 043d 1885 013c 3c53 edbc 99d0 2bbc
000002a0: 3eec 99bc bb9d a8bc 5eb6 643c 491b 963c
000002b0: 6207 50bc df7c e5bc 733a 93bb 5559 d63c
000002c0: d237 93bb 6e97 f33c 2211 f93c a075 91bc
000002d0: aa78 f23c d8d3 313c 666a 16bd 3699 b53c
000002e0: c2dd 1e3c da03 543b c464 a5bc 11e7 c5bc
000002f0: 912e de3c ca0d 733c e6d2 65bc 100d 5fbc
00000300: de93 a7bc 01a7 b9bc 8943 013d b2b4 b03c
00000310: 0ed8 803b 42c9 f83c ed16 0fbc 51ab 183c
00000320: fabf d03b e9f5 91bc 62bc 6dbc 7377 4dbc
00000330: 9d1a 043d a574 983c a59b 893c 5dc9 0b3d
00000340: 7620 b1bc 542c aabb 8e0c ca38 e745 d7bc
00000350: 6368 453c de3a daba c975 b4bc 86e9 ca3c
00000360: f0d0 a03c 3706 b63c 594c 36bc 2623 0c3d
00000370: dffb 733c 7172 e2bc 5778 933c 017c b2bc
00000380: 970f b939 2d17 a7bc 786b 93bc ccc8 81bc
00000390: cc18 01bd d8a1 9f3b 3c92 a9bc e9d8 b3bc
000003a0: ad3d e1bb a2f5 ca3c 52ff 94bc be5c 50bb
000003b0: 4f16 233c 7910 03bd 0ea5 7b3c dd02 3abc
000003c0: da7a b2ba 9b73 093d 17fe 603c 65e0 78bc
000003d0: dc28 e03b f4ea a1bc 1edd 0bbd ce9e 98bc
000003e0: 5a9f 383b 87d7 2bbc 4896 013b cabd b03b
000003f0: baba 153d fd37 79bc a417 ae3c 7365 163d

base_model.model.transformer.h.10.attn.c_attn.lora_B.weight f4 [2304, 4]
0.00015197223 0.00017424593 0.00021377906 -0.00035535666 -0.000298146 -9.0872876e-05 -0.00047357925 0.00022901999
0.0005575137 -0.0005158771 0.00069452927 -0.0008055855 3.115484e-05 -2.710537e-05 -0.0003091287 -9.371363e-05
0.00014519811 -0.000328819 0.0008037859 -0.0005031902 0.00018200807 -3.083151e-05 -0.0004143949 8.995592e-05
-0.0001285402 0.00010730033 -0.00058975414 8.928874e-05 0.00047104762 -0.0004754301 0.0007081284 -0.00012762102
-0.00032408096 -7.485408e-05 -0.0004351412 3.825627e-05 -4.5366476e-05 2.9761391e-05 0.00031544745 -2.3846838e-05
0.0004286409 -0.00018125355 0.0004914536 -0.00038044568 8.4382096e-05 0.00012384009 0.00041194184 -2.361701e-05
0.00015542645 -2.8778655e-05 0.0005531875 -0.00021996748 0.00023125001 -0.00018616923 -6.645358e-05 -0.00012364161
6.173379e-05 2.5389174e-05 -0.00044624068 -4.613052e-05 0.00023067194 -5.108423e-05 0.00053630234 -0.0001422681
-0.00010829323 0.0002591572 -0.00022197633 0.00017434826 -0.00013775608 4.748915e-05 -0.00066345924 0.00027417002
-0.00031215406 7.516994e-05 0.00031158538 -5.759383e-05 0.0005652025 -0.0003068577 0.00050205376 -0.00042639987
0.000100411955 2.0376512e-05 0.00056342926 -7.6999364e-05 -0.0008207217 0.00035993053 -0.0008803263 0.0008962475
0.0001791076 5.01353e-05 0.00068846816 -0.00020739807 0.00021741181 -0.00023464409 0.00019446434 -4.68222e-05
-1.1890042e-05 0.0001971827 0.0003014366 8.479322e-05 -8.973393e-05 7.7141376e-05 0.00017938316 3.5926812e-05
-6.741644e-05 -1.8604418e-05 -0.0004838115 0.00012599229 -9.125494e-05 -0.00016183147 -0.0003500354 0.00038126783
0.00029181418 -7.1160655e-05 0.00065004337 -0.00036047044 -0.00026469785 1.2188353e-05 -0.0005813019 0.00031148517
0.00010210968 0.00011228034 0.00042310284 -0.00019284866 0.0005617447 -0.00026743638 0.00053080963 -0.00062239903
0.00025958405 8.249629e-05 0.00046083986 -8.8422465e-05 0.00021897836 -0.000197478 0.0007234204 -0.0002746646
-0.00019608768 -0.000103882805 6.514996e-05 0.00011910851 0.00011683456 -3.5765697e-05 0.00045855597 -6.7028705e-05
-3.7697493e-05 -0.0001100628 -0.00014605396 0.00015161467 0.0005037391 -0.00032220455 8.125008e-05 0.00014904694
0.0002259566 -0.00010255339 0.0006988294 -0.0001845072 -0.00036866427 0.000118752716 -0.0006542576 0.0005042652
-0.00031627412 0.00025253158 -0.00035202652 0.0005268511 -0.0002991736 -3.4276505e-05 -0.000638994 0.00033200107
-0.0002472081 0.00015653859 -0.00045802182 0.00047515027 0.00033215227 -0.0001855301 0.0008107451 -0.00057884504
-0.00030533172 0.0004904806 -0.00026661376 0.00030614334 0.00047264638 -5.1519623e-05 0.00076377974 -0.00055133225
-0.000385194 0.00042052803 -0.00034644353 0.00034697607 -4.1893643e-05 -0.0002138066 -0.00045361416 -0.00012743406
3.2131577e-06 -0.00027053957 0.0003962938 -0.00026627307 -4.3482112e-05 0.0003020041 0.00031841407 0.00013973883
-0.00037702566 6.602129e-05 -0.0006186182 0.00066593604 -0.00021078148 9.83457e-05 -0.0004918661 0.00022522571
-0.00012836758 0.00029896374 0.00011470802 0.00022623352 0.0001393171 0.00023568262 0.00027982835 0.00010169473
4.9911883e-05 -0.00015852496 -0.00022784676 1.2258433e-05 -0.00020455879 8.976856e-05 -0.00040036894 0.00038697416
-0.0001529098 0.00011657844 -0.00029078036 0.00028577086 9.837835e-06 -0.00013040181 -1.4122919e-05 4.1522555e-05
-0.00021961414 -0.00014035813 0.00020396514 7.537378e-05 -0.00022582072 8.7691136e-05 -0.00044553672 0.00063217466
-0.00057809096 0.00042403367 -0.00037210263 0.00013987972 0.00027347365 -0.00010642373 0.00068949495 -0.0003039347
0.00015877574 6.422088e-05 0.0006047783 -4.6586512e-05 0.00032826053 -0.00061219843 0.0005592762 -0.0004949438
00000000: bc5a 1f39 c9b5 3639 e129 6039 2a4f bab9
00000010: 7b50 9cb9 0193 beb8 bb4a f8b9 1625 7039
00000020: 1c26 123a ed3b 07ba 1211 363a ee2d 53ba
00000030: 41ac 0238 5760 e3b7 8d12 a2b9 1f88 c4b8
00000040: 5240 1839 5765 acb9 29b5 523a 86e8 03ba
00000050: 6bd9 3e39 1551 01b8 2443 d9b9 b8a6 bc38
00000060: bfc8 06b9 6d06 e138 bb99 1aba 8740 bb38
00000070: f1f6 f639 2643 f9b9 b1a1 393a 02d2 05b9
00000080: 69e9 a9b9 fafa 9cb8 aa23 e4b9 5b75 2038
00000090: e247 3eb8 1aa8 f937 a462 a539 b20a c8b7
000000a0: 35bb e039 e10e 3eb9 e5d4 003a 8e76 c7b9
000000b0: 4bf6 b038 12db 0139 e6f9 d739 251d c6b7
000000c0: f8f9 2239 b169 f1b7 c903 113a 12a7 66b9
000000d0: b47b 7239 6c36 43b9 fe5c 8bb8 cba5 01b9
000000e0: 1377 8138 d6fa d437 69f5 e9b9 457c 41b8
000000f0: 87e0 7139 4643 56b8 a496 0c3a cd2d 15b9
00000100: 7c1b e3b8 7edf 8739 51c2 68b9 41d1 3639
00000110: 9e72 10b9 162f 4738 ffeb 2dba 7abe 8f39
00000120: 9ca8 a3b9 8ea4 9d38 485c a339 e790 71b8
00000130: 192a 143a bee1 a0b9 429c 033a 6c8e dfb9
00000140: 4294 d238 3aee aa37 19b3 133a b87a a1b8
00000150: b325 57ba 0fb5 bc39 b3c5 66ba 27f2 6a3a
00000160: d5ce 3b39 5e48 5238 517a 343a ff78 59b9
00000170: 0af9 6339 cb0a 76b9 20e9 4b39 f462 44b8
00000180: 577b 47b7 d4c2 4e39 230a 9e39 03d3 b138
00000190: 892f bcb8 f6c6 a138 cd18 3c39 1fb0 1638
000001a0: ed61 8db8 af10 9cb7 15a8 fdb9 cc1c 0439
000001b0: 1f60 bfb8 4eb1 29b9 f584 b7b9 e7e4 c739
000001c0: a3fe 9839 163c 95b8 ac67 2a3a 86fd bcb9
000001d0: 25c7 8ab9 947c 4c37 8362 18ba d54e a339
000001e0: b823 d638 0c78 eb38 e7d3 dd39 6b37 4ab9
000001f0: 0c42 133a b436 8cb9 0826 0b3a 7e28 23ba
00000200: c818 8839 dc01 ad38 e19c f139 736f b9b8
00000210: 8e9d 6539 1912 4fb9 eca3 3d3a dc00 90b9
00000220: e39c 4db9 a8db d9b8 1ea1 8838 e5c9 f938
00000230: 1405 f538 2003 16b8 576a f039 c391 8cb8
00000240: 601d 1eb8 84d1 e6b8 1026 19b9 c1fa 1e39
00000250: 5c0d 043a 90ed a8b9 ce64 aa38 7c49 1c39
00000260: c3ee 6c39 ef11 d7b8 a631 373a 4678 41b9
00000270: 4849 c1b9 e10a f938 7c82 2bba aa30 043a
00000280: 98d1 a5b9 3766 8439 3390 b8b9 611c 0a3a
00000290: 67da 9cb9 1ec4 0fb8 2982 27ba 6e10 ae39
000002a0: b69b 81b9 8224 2439 a622 f0b9 971d f939
000002b0: b924 ae39 db8a 42b9 2f88 543a a2bd 17ba
000002c0: ee14 a0b9 9993 003a 4bc8 8bb9 dd81 a039
000002d0: 86cd f739 c616 58b8 6438 483a 4887 10ba
000002e0: ddf3 c9b9 517a dc39 dda2 b5b9 57ea b539
000002f0: f5b6 2fb8 4631 60b9 10d3 edb9 d29f 05b9
00000300: a1a1 5736 35d7 8db9 a7c5 cf39 919a 8bb9
00000310: 9060 36b8 4e56 9e39 d0f0 a639 db86 1239
00000320: 87ab c5b9 e974 8a38 c42a 22ba 3692 2e3a
00000330: 3905 5db9 f23e ce38 93f0 00ba 912a 6c39
00000340: 699a 06b9 3cbe 9c39 668f f038 1939 6d39
00000350: a615 1239 9221 7739 edb5 9239 f144 d538
00000360: 7a58 5138 b839 26b9 26ea 6eb9 92a9 4d37
00000370: d57e 56b9 2142 bc38 9ce8 d1b9 cbe2 ca39
00000380: 6956 20b9 937b f438 e173 98b9 84d3 9539
00000390: 2e0d 2537 78bc 08b9 7af1 6cb7 8128 2e38
000003a0: 3948 66b9 192d 13b9 7adf 5539 fd11 9e38
000003b0: 4aca 6cb9 d2e6 b738 ed96 e9b9 86b8 253a
000003c0: 078b 17ba d650 de39 c516 c3b9 adac 1239
000003d0: 0361 8f39 ce2f dfb8 39bf 343a 6d59 9fb9
000003e0: 0a7d 2639 53ae 8638 fc89 1e3a e365 43b8
000003f0: 621a ac39 f17b 20ba 649c 123a 1ebf 01ba

base_model.model.transformer.h.11.attn.c_attn.lora_A.weight f4 [4, 768]
-0.0018162973 -0.025378939 0.03018676 0.0036165642 0.016555881 -0.01922086 -0.019615496 -0.0108860005
-0.02523715 -2.6338405e-06 0.0141233895 -0.006403836 -0.0013956772 -0.02810068 -0.016780129 -0.013120825
-0.0079391245 -0.0036636833 0.034394477 0.03585635 0.026727917 0.01913936 -0.017541597 -0.031906497
0.030805344 -0.01992999 0.0114917 -0.009349535 -0.020316403 -0.020898553 0.028782219 -0.019320128
-0.02438826 0.03658425 -0.0015781443 -0.0052482216 -0.031257518 0.029014379 0.0044966973 0.0067107775
0.030458651 0.0033145929 0.02201604 0.026613917 -0.019659124 0.018758936 -0.015601142 0.0024927028
-0.0045362776 -0.03008596 -0.028663175 -0.0036650707 0.0042126332 0.0040739537 0.02364467 -0.024741078
0.036040656 -0.017301358 0.035225365 0.02029893 0.01602529 0.00918727 0.013543751 0.027993282
-0.017742325 -0.0007099336 -0.014210053 -0.0013604987 -0.017370587 -0.0041343817 -0.030872364 -0.021511579
0.026105676 0.029710043 0.015968483 0.0012387974 -0.010445193 0.007630682 -0.0014429423 -0.008642576
0.016272789 0.016764373 0.014814076 -0.030119913 0.011524631 -0.022207683 -0.028010312 -0.016674561
-0.019742938 0.0040372577 0.01816659 0.02876811 -0.026352445 -0.0034538459 0.031379234 0.0012872907
-0.02520441 0.015658194 -0.017984362 -0.02207971 -0.013164522 0.01663003 -0.03281923 0.0333291
-0.02261587 0.0020424698 -0.011318659 0.017019877 0.010928972 -0.009169328 0.005178252 0.0031066022
-0.022618562 0.023388041 0.0055432664 -0.0026911274 -0.0113008395 -0.026405906 -0.03144491 0.021402687
-0.010131169 -0.037283044 -0.025827918 0.0038447697 -0.023372484 -0.028089311 -0.017445171 -0.0065933065
0.0006265146 0.029698629 0.021787487 -0.021361526 -0.00527934 -0.035629436 -0.014822639 -0.00054301665
0.031229764 -0.00421665 0.016857203 -0.034117088 -0.03708238 0.013204257 -0.02951209 0.03383921
0.008568418 -0.034769498 -0.023112362 0.032305602 -0.01010932 -0.0010474306 -0.01837435 0.019849438
-0.030642575 -0.014432376 0.007547335 -0.012950922 -0.0130195 0.016521415 -0.011712738 0.036336757
0.0016754528 0.025491605 0.022482999 0.012440333 -0.0014375086 -0.03463197 2.977962e-05 0.0042544617
0.005702691 0.00032151074 0.034728225 0.022572968 0.008177745 0.017494554 0.03507 -0.0033418548
-0.019100683 0.018648522 -0.03438716 0.03710104 -0.023389533 -0.015999759 0.0045652585 0.032721955
0.0005192879 -0.034033142 0.005058152 -0.00045829205 0.024049822 -0.020359248 0.033473592 0.03231194
-0.034749597 0.009651769 -0.02839382 0.014888417 0.018230362 0.0083341235 -0.003041461 -0.0074997055
0.022400806 -0.0126258265 -0.025636561 -0.024545206 0.0022564249 -0.02548737 -0.02519512 0.009848113
0.009780236 0.0067770686 0.0077913925 -0.0059031122 -0.012217543 0.015495254 0.025596855 0.0039569973
-0.0036039867 0.034800783 -0.031155165 -0.03661736 -0.025067104 -0.036687676 0.0028105502 0.019378388
0.018954404 -0.020646993 0.016658142 0.024332061 0.026861588 0.023439983 -0.0097122155 0.025787884
0.034779172 -0.016894128 0.03186282 -0.027484529 0.013438938 -0.03234484 -0.003229127 -0.008772297
-0.028204206 0.027405242 0.024564983 -0.0029969297 -0.030672774 0.019692233 -0.03680094 -0.02610851
-0.0062487754 -0.00044415548 -0.018818425 0.0046023275 -0.013947424 0.015033538 0.02614429 0.014755463
00000000: d310 eeba 7ee7 cfbc 394a f73c e103 6d3b
00000010: 33a0 873c 1175 9dbc adb0 a0bc 325b 32bc
00000020: 24be cebc 09c1 30b6 ca65 673c 45d7 d1bb
00000030: 28ef b6ba 6633 e6bc 7b76 89bc bbf8 56bc
00000040: 1a13 02bc 681a 70bb 39e1 0c3d 1cde 123d
00000050: 81f4 da3c 26ca 9c3c 65b3 8fbc 63b0 02bd
00000060: 7d5b fc3c 3844 a3bc af47 3c3c cb2e 19bc
00000070: 966e a6bc 7133 abbc b0c8 eb3c 3f45 9ebc
00000080: e3c9 c7bc 5ed9 153d bcd9 ceba 46f9 abbb
00000090: e207 00bd 90af ed3c 0859 933b 15e6 db3b
000000a0: 6c84 f93c a439 593b fb5a b43c 6e05 da3c
000000b0: 2c0c a1bc 57ac 993c ef9b 7fbc 9d5c 233b
000000c0: 0ea5 94bb d576 f6bc 09cf eabc af31 70bb
000000d0: 210a 8a3b cd7e 853b 78b2 c13c cdad cabc
000000e0: 5e9f 133d 94bb 8dbc 7948 103d f149 a63c
000000f0: 7847 833c 3486 163c 9ce6 5d3c 2b52 e53c
00000100: 5a58 91bc d61a 3aba 48d1 68bc c352 b2ba
00000110: c34c 8ebc b579 87bb 0ae8 fcbc 0d39 b0bc
00000120: 92db d53c 7a62 f33c 56d0 823c 255f a23a
00000130: 5122 2bbc cd0a fa3b 1c21 bdba 9799 0dbc
00000140: 834e 853c 7055 893c bdb6 723c 09be f6bc
00000150: ced1 3c3c e3ec b5bc e275 e5bc 1799 88bc
00000160: f1bb a1bc f94a 843b 1ad2 943c 19ab eb3c
00000170: 15e1 d7bc eb59 62bb 8387 003d 4fba a83a
00000180: 7b79 cebc 9d45 803c f153 93bc 82e0 b4bc
00000190: 02b0 57bc b33b 883c 756d 06bd 1884 083d
000001a0: eb44 b9bc f5da 053b e671 39bc 456d 8b3c
000001b0: 6e0f 333c f33a 16bc 53ae a93b 2398 4b3b
000001c0: 904a b9bc 4798 bf3c 4aa4 b53b a05d 30bb
000001d0: 2827 39bc 3351 d8bc 61cc 00bd b054 af3c
000001e0: 34fd 25bc 1bb6 18bd 1295 d3bc 88f8 7b3b
000001f0: a777 bfbc 8e1b e6bc 2de9 8ebc aa0c d8bb
00000200: af3c 243a 8a4a f33c ac7b b23c 5efe aebc
00000210: 50fe acbb 2cf0 11bd a7da 72bc 3b59 0eba
00000220: 90d5 ff3c d32b 8abb 1e18 8a3c 5cbe 0bbd
00000230: b2e3 17bd ab56 583c 57c3 f1bc fc9a 0a3d
00000240: 8d62 0c3c 766a 0ebd 2356 bdbc e152 043d
00000250: 90a1 25bc f049 89ba ce85 96bc 4a9b a23c
00000260: 2306 fbbc c675 6cbc a24f f73b 1b30 54bc
00000270: be4f 55bc eb57 873c c9e6 3fbc dad5 143d
00000280: de9a db3a c5d3 d03c 442e b83c 8ad2 4b3c
00000290: c96a bcba 41da 0dbd 3fcf f937 0369 8b3b
000002a0: a4dd ba3b 7190 a839 2f3f 0e3d f2ea b83c
000002b0: f3fb 053c bd50 8f3c 8fa5 0f3d 0503 5bbb
000002c0: 0979 9cbc c9c4 983c 8dd9 0cbd 43f7 173d
000002d0: 689b bfbc ed11 83bc 2a98 953b 7507 063d
000002e0: d220 083a 5666 0bbd dbbe a53b eb46 f0b9
000002f0: 2204 c53c 70c8 a6bc 9b1b 093d 8659 043d
00000300: 9855 0ebd 7422 1e3c 289a e8bc 8cee 733c
00000310: d757 953c d98b 083c 4053 47bb 17c0 f5bb
00000320: e581 b73c 8edc 4ebc c403 d2bc 0713 c9bc
00000330: 87e0 133b e4ca d0bc ff65 cebc fb59 213c
00000340: 483d 203c 2c12 de3b f04e ff3b e56e c1bb
00000350: 172c 48bc cedf 7d3c 7fb0 d13c b3a9 813b
00000360: dd30 6cbb 448b 0e3d 1e39 ffbc 16fc 15bd
00000370: 8759 cdbc d145 16bd 3531 383b 6dbf 9e3c
00000380: 4446 9b3c e223 a9bc a876 883c 0854 c73c
00000390: d50c dc3c 3505 c03c fc1f 1fbc 1d41 d33c
000003a0: 9b74 0e3d 8e65 8abc 9782 023d 3c27 e1bc
000003b0: fe2e 5c3c 067c 04bd c39f 53bb aeb9 0fbc
000003c0: 820c e7bc f580 e03c 813c c93c 2368 44bb
000003d0: 7845 fbbc 9b51 a13c 95bc 16bd 84e1 d5bc
000003e0: 87c2 ccbb 8add e8b9 1929 9abc 1fcf 963b
000003f0: bc83 64bc 3b4f 763c 8d2c d63c e6c0 713c
